TRAIN
	 (9957, 240, 320, 3)
	 (9957,)
	 (9957, 4) 

TEST
	 (2487, 240, 320, 3)
	 (2487,)
	 (2487, 4) 

Model:  Conv_single
_________________________________________________________________
Layer (type)                 Output Shape              Param #   
=================================================================
input_1 (InputLayer)         (None, 240, 320, 3)       0         
_________________________________________________________________
average_pooling2d_1 (Average (None, 60, 80, 3)         0         
_________________________________________________________________
conv2d_1 (Conv2D)            (None, 60, 80, 16)        448       
_________________________________________________________________
flatten_1 (Flatten)          (None, 76800)             0         
_________________________________________________________________
dense_1 (Dense)              (None, 4)                 307204    
=================================================================
Total params: 307,652
Trainable params: 307,652
Non-trainable params: 0
_________________________________________________________________
None
Epoch 1/100

  1/155 [..............................] - ETA: 3:23 - loss: 1.6320 - acc: 0.2500
  2/155 [..............................] - ETA: 1:49 - loss: 3.0283 - acc: 0.2344
  3/155 [..............................] - ETA: 1:17 - loss: 4.7385 - acc: 0.2656
…
