TRAIN
	 (9957, 240, 320, 3)
	 (9957,)
	 (9957, 4) 

TEST
	 (2487, 240, 320, 3)
	 (2487,)
	 (2487, 4) 

Model:  Conv_improved
_________________________________________________________________
Layer (type)                 Output Shape              Param #   
=================================================================
input_1 (InputLayer)         (None, 240, 320, 3)       0         
_________________________________________________________________
max_pooling2d_1 (MaxPooling2 (None, 60, 80, 3)         0         
_________________________________________________________________
conv2d_1 (Conv2D)            (None, 60, 80, 32)        896       
_________________________________________________________________
conv2d_2 (Conv2D)            (None, 60, 80, 16)        4624      
_________________________________________________________________
flatten_1 (Flatten)          (None, 76800)             0         
_________________________________________________________________
dense_1 (Dense)              (None, 4)                 307204    
=================================================================
Total params: 312,724
Trainable params: 312,724
Non-trainable params: 0
_________________________________________________________________
None
Epoch 1/100

  1/155 [..............................] - ETA: 4:16 - loss: 1.3739 - acc: 0.2656
  2/155 [..............................] - ETA: 2:21 - loss: 1.4063 - acc: 0.2578
  3/155 [..............................] - ETA: 1:43 - loss: 1.4028 - acc: 0.2604
…
