TRAIN
	 (9957, 240, 320, 3)
	 (9957,)
	 (9957, 4) 

TEST
	 (2487, 240, 320, 3)
	 (2487,)
	 (2487, 4) 

Model:  base
_________________________________________________________________
Layer (type)                 Output Shape              Param #   
=================================================================
input_1 (InputLayer)         (None, 240, 320, 3)       0         
_________________________________________________________________
average_pooling2d_1 (Average (None, 60, 80, 3)         0         
_________________________________________________________________
flatten_1 (Flatten)          (None, 14400)             0         
_________________________________________________________________
dense_1 (Dense)              (None, 16)                230416    
_________________________________________________________________
dense_2 (Dense)              (None, 4)                 68        
=================================================================
Total params: 230,484
Trainable params: 230,484
Non-trainable params: 0
_________________________________________________________________
None
Epoch 1/100

  1/155 [..............................] - ETA: 3:31 - loss: 1.6284 - acc: 0.2656
  2/155 [..............................] - ETA: 1:53 - loss: 2.3696 - acc: 0.2969
  3/155 [..............................] - ETA: 1:18 - loss: 5.7850 - acc: 0.2396
…
